policy.pt (torch, 17111 bytes, 6 tensors)

lstm.weight_ih f4 [96, 11]
00000000: e30f f03d 3341 22bd 85d3 1d3a 61cd f4bd
00000010: 2516 013e e1b6 dc3d 55fd 3bbc c274 643d
00000020: 45de 153e 8b58 413e 089f 20be 3590 663d
00000030: d07a 473d 8993 22be 3cb7 7d3d a62b f0bd
00000040: 9304 efbd 15bd 1dbe 933f 95bd 98d3 d8bd
00000050: dcd9 41be f481 f6bd c555 343e 8367 e63b
00000060: 6219 4b3d 68dc 3e3d 6209 67bc af85 04be
00000070: 3254 cb3d 053c 82bd 7a0d 103d a478 babd
00000080: c478 49bc 2472 30be dfa2 82bd 315d 1f3e
00000090: dd37 31be ac12 243e 40ec ff3d 67fe 24be
000000a0: 7c6a 133e 8a71 e63d 96be 45bc 59cc 1d3e
000000b0: ba3a 953d 84c5 b23d e992 ccbb c71d 883d
000000c0: ed11 01be e5d3 3b3e 0edd 16bd 718e 563c
000000d0: 7462 433d f6e3 50bd 532d 463e 2b2c d23c
000000e0: 1889 c43d 9bed f4bd 75a9 1c3e b2be 00be
000000f0: 3706 14be 420b 343d f022 183d 1858 dfbd
00000100: 6fb3 2abd fd5d 383e 1c6e 3cbd 20b7 e93d
00000110: 8c63 00be 9c89 99bd 6f57 e33d 86f2 a53d
00000120: 5c23 243e af46 623d 9b9f 17be fb74 433e
00000130: 4dbe 2bbd 5d9a b9bd 811a 02bd dca8 49be
00000140: bf36 68bd fcd3 1bbb e39f 8bbd b6df 873d
00000150: cd15 aa3d 0b86 38be fe7a 8bbd c886 4dbe
00000160: d6fd ddbd 6dbd 923c 8796 0bbe a945 de3d
00000170: 6c72 113e fd34 053e c274 49be 8b2d 493e
00000180: 4274 a1bd 6113 443d 5d96 2dbd d375 fdbd
00000190: 1d8a a03d 4d0c ec3b 273f 5b3d df43 093e
000001a0: 9adc cfbd fe35 b13d 7718 133e c64a 50be
000001b0: 794e 293d b248 a3bd 28da 3cbe 834c 4ebe
000001c0: c1e0 323d 24f2 a9bd 1a8f 183e e208 033e
000001d0: 9b8c ed3d 3625 333e a0f0 2dbe e285 f53d
000001e0: 0867 7f3d 9dce e43d fe4d 2cbe a790 fd3d
000001f0: e704 ec3d cab2 ccbd 2ead 103e afc1 4b3e
00000200: d581 fcbb 5708 eabd 9969 4d3e 077f 403e
00000210: cdfe f5bc 039d 0d3d b0fa c9bd 05f4 443d
00000220: 0893 cebd b29f 493e 5023 77bd e14e cabd
00000230: 2ff9 e5bc a5ae 3cbe 731b 163e 3615 a13d
00000240: 4072 4e3e 8d33 0e3d 42a5 223e cc76 053e
00000250: 411c 1bbe 5471 5f3d 9490 383e 961a 14be
00000260: ccb8 f1bd a0be 323e 6653 3bbe 93ca 193e
00000270: e2df 98bd 0beb 9d3c 371a 57bd 4f3d dd3b
00000280: 4f96 653d 27c9 c4bd fa41 143e d814 373e
00000290: 966c febd 32fb c23c ed21 b13c f0a1 f13c
000002a0: eb7a a53d d4b5 01be 5d48 4a3e 863e 15be
000002b0: 5863 bc3d 50c0 6cbd 5450 3d3e 584e 8e3d
000002c0: bb74 1cbd 9484 adbc d936 4cbc 029d 11be
000002d0: 5cab 4a3c ef58 0e3d 999c 453d 1f02 37be
000002e0: a1aa 463e c426 2abe 95a9 49be 70b1 183e
000002f0: aa1f 15be 9d3c 963c d946 23be 5839 983c
00000300: e97e 06be 47a7 fcbd 33ad 85bd 3eb0 32be
00000310: b725 de3d e42e 30bd 929b 38be a7a4 213e
00000320: 45d6 1abe 45a7 0dbd 2aa9 c63d f3df 0dbe
00000330: f862 3f3e f00a 073e 60cc 8b3d d111 af3d
00000340: ec2e 473e a068 50be f2b7 35bd 07dd 4d3e
00000350: 60ae 1cbe 1a72 dcbc 371e 87bd 59fc 77bc
00000360: adbc 2bbe 99bc 693d f720 2ebe b567 69bd
00000370: dd17 d93d a105 f1bc c7b8 a63d ab52 193e
00000380: 6568 bc3c 886d 09be cc21 4dbd b714 b8bd
00000390: 0f8c 50bc a1c7 38bd 53b5 973d 7f0e 833d
000003a0: 8d7c f3bd 1884 42be 706b b9bd 46d3 25be
000003b0: ec1c e93c 1052 10be c96c f63d d962 12bc
000003c0: 1735 00be bfad 503e a51f ab3d 598b 3d3d
000003d0: 02a6 21be f013 053e 5e3c 1abe b9ad 8ebc
000003e0: 1284 883d e67b b8bc 9bd1 8a3b 8688 11be
000003f0: cd68 c53d 6625 b9bd 54fd 183d efd1 25be
0.1172178 -0.03961296 0.00060205936 -0.119532354 0.12606104 0.10777069 -0.011473973 0.05577541
0.1463557 0.18881433 -0.15685666 0.05628987 0.048701108 -0.15876593 0.061942324 -0.11727075
-0.11670794 -0.1540416 -0.072875164 -0.10587233 -0.18930763 -0.12036505 0.17610843 0.0070313825
0.049584754 0.046596915 -0.014101358 -0.12941621 0.09928168 -0.06359104 0.035169102 -0.091050416
-0.012296859 -0.17231041 -0.063787214 0.15562893 -0.17306466 0.16022748 0.12496233 -0.16112672
0.1439609 0.112521246 -0.012069365 0.15409984 0.07286592 0.08729079 -0.006243099 0.066463046
-0.12604494 0.1834255 -0.036831908 0.013095484 0.047701314 -0.05099865 0.19353227 0.025655827
0.09596461 -0.11959382 0.15299018 -0.12572744 -0.14455496 0.04395605 0.037142694 -0.109054744
-0.041675027 0.18004604 -0.046003446 0.114118814 -0.12537974 -0.0749695 0.11100661 0.08102898
0.16029114 0.05524319 -0.14806978 0.19087593 -0.04192953 -0.090626456 -0.031763557 -0.19693321
-0.056692835 -0.0023777476 -0.06817605 0.06634466 0.083049394 -0.18019883 -0.06810568 -0.20070946
-0.10839431 0.01791259 -0.1363164 0.1085313 0.14203805 0.13008495 -0.19673446 0.1964628
-0.078835025 0.047870044 -0.042379726 -0.12375989 0.07838843 0.007203615 0.053527024 0.13404797
-0.10149498 0.08652876 0.14364801 -0.20341024 0.041334603 -0.0797285 -0.18442595 -0.20146374
0.043671373 -0.08298138 0.14898339 0.12796357 0.11599084 0.17494664 -0.16986322 0.11988427
0.062354118 0.11172221 -0.16826627 0.12381106 0.115243725 -0.09995039 0.14128563 0.19898103
-0.007705907 -0.11427372 0.20059814 0.18798457 -0.030028725 0.034573566 -0.09862268 0.048084278
-0.10086638 0.19689825 -0.06033641 -0.09878326 -0.028072922 -0.18425997 0.14658909 0.07865374
0.2016077 0.03471713 0.15883353 0.13033599 -0.15147497 0.054551437 0.18023902 -0.14463267
-0.11802825 0.1745553 -0.18293533 0.15018682 -0.07464577 0.019277116 -0.052515235 0.0067516933
0.05605155 -0.09608679 0.14478293 0.17879045 -0.12423055 0.02380142 0.021622622 0.029496163
0.08080085 -0.12667018 0.19754167 -0.14574632 0.09198636 -0.05780059 0.18487674 0.06948537
-0.03819726 -0.021181382 -0.012464249 -0.1422005 0.012369957 0.034752782 0.048245046 -0.17871903
0.19401027 -0.1661635 -0.19693597 0.14911437 -0.1456286 0.01833945 -0.15944995 0.018582031
-0.1313435 -0.12336593 -0.06527176 -0.17450044 0.10847037 -0.04301347 -0.18028095 0.15785466
-0.151208 -0.03458335 0.09700234 -0.13854961 0.18690097 0.13187766 0.06826091 0.0854832
0.19451493 -0.20352411 -0.044364877 0.20103846 -0.15300894 -0.026909877 -0.0659756 -0.015135848
-0.16771193 0.057064626 -0.17004763 -0.05698367 0.10600255 -0.02942163 0.08140712 0.14972942
0.022998998 -0.13420689 -0.05008106 -0.08988326 -0.012728705 -0.045112256 0.07407632 0.06399249
-0.118889906 -0.18995702 -0.09053695 -0.16193876 0.028456174 -0.14093804 0.12032468 -0.0089347
-0.12520252 0.20378779 0.08355645 0.04627547 -0.15785983 0.12995887 -0.15062091 -0.017416822
0.066658154 -0.022520017 0.0042364127 -0.14212236 0.0963913 -0.09040336 0.037350968 -0.16193365

lstm.weight_hh f4 [96, 24]
00000000: 6d7a a43d 9522 86bb fdd0 a73c 8d61 273e
00000010: 28b1 f1bd a80b fdbd a071 353e f623 b33d
00000020: e805 693d c967 8d3d b96d 3bbe 4402 0d3e
00000030: d420 41be 75ed 7c3d af12 a23b 310e ecbc
00000040: ac58 3ebe 5f6f 2d3e 5b60 bd3d 666e 0e3e
00000050: e21b 0bbd 357b 2e3e 1c6a b1bd 5b94 36be
00000060: 3439 133d 97ac babd ffcc a2bd 23f3 f6bd
00000070: 37cb 1f3e 248e 203e 1a28 f9bc 41bd 393e
00000080: 9f44 1fbe b559 46be e32e 163c ee56 373e
00000090: 5316 bbbd 5317 33be 347e bebd 2227 33be
000000a0: fdd6 243e 62ec 90bc eb17 c53c 851f dcbd
000000b0: 9448 3e3e 910b f43c 7266 083d a968 26be
000000c0: d925 fcbd fdab b13d 6fe1 b03d ea47 b73d
000000d0: 7d5c 2f3e 6151 573d 48e8 a83d d50b 0bbd
000000e0: 7e6b 143e 3cc3 063e fb65 86bd a856 acbd
000000f0: de8d 113d 77da b63c 2c3f 8b3d 57c7 473e
00000100: c614 dabc d685 cbbd 9f7a 203e 24d8 f73d
00000110: 23fa 3bbe 9a14 03be 2974 edbd 11eb b0bb
00000120: b02a 48bd 9612 aabd 32af 62bd ef3e 1d3e
00000130: 3fc3 313e b43a 173e 5004 d23d 1050 29be
00000140: 8760 1abe 9f08 213e 3c7b bd3d 5143 99bb
00000150: c56f 24be e963 0ebe 1fdd 3ebe 56ef 76bd
00000160: 5b4e 11be 4f53 08be 7a57 58bc 6189 d13a
00000170: 2893 283e 91da 363b e621 e83c ccd8 42bc
00000180: 07e2 1abe 1e54 d03d f1c4 203e dcd4 e6bd
00000190: 09b7 ffbd 3335 f6bd b790 3abd efd0 c9bd
000001a0: bfb3 ac3d 2f55 c43c 2037 97bb 7085 b5bd
000001b0: a723 90bd 5708 bd3d 6679 4dbe 3f59 acbd
000001c0: 6d33 4e3d c967 7abd 0ee2 273e 23b9 14bd
000001d0: 90d3 0dbe d550 5c3c c0b6 2dbe 6890 023e
000001e0: 6bcf f13d 8adf e9bd 210d 483e 6c7a 77bd
000001f0: 759c ca3c dbd7 9dbc 54f5 283e 0be7 143e
00000200: cd72 b83d 1c34 863d e4dd 0dbe 996e 08be
00000210: 0a2f c4bd a00e 42be bf0a ecbd 4a19 0f3e
00000220: bb1b 4b3b f0a1 07be 4ba7 f13b 4288 74bd
00000230: 4a08 4e3e b9cf b13d e24e ed3d 94ca 8e3d
00000240: 6c7c 7c3c 90be 363e 9534 f8bb 1eb8 973d
00000250: d23b 7b3d cefe c6bd 5f9d 793d 47ef 4bbe
00000260: 6b23 ad3d e561 67bd 1c5f 16be 632a ebbc
00000270: 413a 133e 5db5 5cbd 5c83 073e f524 973a
00000280: 88c5 e73c 7466 4c3e 95cc a9bd ff11 1abe
00000290: 7319 313e 7da7 f9bd 7163 8f3c a896 dbbd
000002a0: 3552 65bc 8207 d93d 2c48 7abd 5cc8 40be
000002b0: 014b a83c efd1 3c3e 12a6 3d3e 4fa0 383e
000002c0: 006b d6bd 47fc 2c3e 2ccf e03d 6d87 ba3c
000002d0: dd5b 343c 96bb 943c e578 23bd 6ae0 19bd
000002e0: 94f1 383e 9ed3 21be b3ec 703d 95d9 573d
000002f0: 94ad 0c3e 295c e5bd 693b fc3c c701 953d
00000300: c7f8 80bc 52e6 9e3d 6cd8 393e 65d5 0f3e
00000310: 3412 b33d ecf5 083d e214 933d 72dd 6e3d
00000320: 6787 393c 4185 3dbe 10df 8bbd 504f f73d
00000330: 763d 443e 1eac b1bd fba4 313e c0ef a23d
00000340: b12d 273c 8629 31be a451 babc e046 f9bd
00000350: ce9c 3bbe 1183 3b3e c92f 013e acc4 5bbd
00000360: c590 ddbd f230 193d a107 923d e7e4 a83d
00000370: e344 663d c050 b4bd 3551 3a3e 9cba 96bb
00000380: 9c84 04be dc0c 293e aa91 af3d f351 5d3d
00000390: 07c1 0cbe c36f f5bc d60e bcbd 4bb4 493d
000003a0: 4d05 1d3e 8861 203b a742 473e 3146 a5bc
000003b0: 3c88 f4bc 8747 81bd b450 523d 289a c73d
000003c0: b6eb aebd 1126 183e 0ee4 013e 666c 21be
000003d0: 7b77 233e 3c2e 29be 378f eabd 0f07 5ebd
000003e0: 86df a23d d51d 23be 5d40 07be 889b da3d
000003f0: c469 f5bd 607b ab3d 1151 cc3d c864 04be
0.08031163 -0.004093478 0.020485396 0.16345806 -0.11801368 -0.12355739 0.17719126 0.087470934
0.0568904 0.06904561 -0.18303575 0.13770396 -0.18860179 0.061749894 0.004946075 -0.02881536
-0.18588513 0.16937016 0.09246894 0.13909301 -0.033962138 0.17039187 -0.08662817 -0.1783003
0.035943225 -0.0911495 -0.07949256 -0.120580934 0.15604864 0.15679222 -0.03041463 0.18138601
-0.1555352 -0.19370158 0.009166452 0.17904255 -0.091351174 -0.17489366 -0.09301415 -0.17495397
0.16097637 -0.017690841 0.024059257 -0.107481994 0.18582374 0.029790672 0.033300824 -0.16250862
-0.12311906 0.08675382 0.08636748 0.089492634 0.17125125 0.052567843 0.08247429 -0.03394683
0.1449413 0.13160414 -0.0656242 -0.08414966 0.035535686 0.022320969 0.067991585 0.19509636
-0.026621234 -0.099376366 0.15671776 0.121017724 -0.18357138 -0.12800828 -0.115944214 -0.005399116
-0.048868835 -0.08304326 -0.05534286 0.15356039 0.17359637 0.14768487 0.10254729 -0.16534448
-0.15075885 0.15725945 0.09252021 -0.004677214 -0.16058262 -0.139053 -0.18639039 -0.060286842
-0.14190046 -0.1331303 -0.01320445 0.0015986377 0.16462386 0.0027901272 0.028336477 -0.011892509
-0.15125285 0.10172294 0.15700127 -0.112710685 -0.12486083 -0.12021866 -0.045548167 -0.09854304
0.08432721 0.0239664 -0.0046147257 -0.08863342 -0.0703805 0.09230106 -0.20065841 -0.0841546
0.050342012 -0.061134133 0.16394827 -0.036309373 -0.13850236 0.013447006 -0.16964245 0.12750399
0.1180714 -0.1141959 0.19536258 -0.060419485 0.024732808 -0.019267967 0.16499835 0.14541261
0.090062715 0.06552908 -0.13854176 -0.1332344 -0.095792845 -0.18950891 -0.11525487 0.13974491
0.003099187 -0.13245368 0.007374679 -0.059700258 0.2012035 0.08682198 0.11587311 0.069722325
0.015410524 0.17846131 -0.0075746276 0.074081644 0.061336346 -0.09716569 0.060941096 -0.19915496
0.08454021 -0.056489844 -0.14684719 -0.028706735 0.14377691 -0.0538839 0.13233703 0.00115314
0.028292432 0.19960958 -0.08290974 -0.15045927 0.17294864 -0.12190149 0.017503472 -0.10722095
-0.01399665 0.10597135 -0.061103985 -0.18826431 0.020543577 0.18439458 0.18520382 0.18029903
-0.104696274 0.16893111 0.10977015 0.022769654 0.01100823 0.018155854 -0.039910216 -0.037567534
0.18060905 -0.15803382 0.058819484 0.052697737 0.1373809 -0.11199219 0.030790048 0.072757296
-0.015743626 0.07758774 0.18148965 0.14046247 0.08743706 0.033437654 0.071817175 0.058316655
0.011323786 -0.18507864 -0.06829655 0.120756745 0.1916407 -0.08675407 0.17348091 0.07955885
0.010203765 -0.17300996 -0.022744007 -0.121717215 -0.18321535 0.18311717 0.12615885 -0.053654358
-0.10818628 0.037400194 0.07130361 0.08246785 0.05621804 -0.08804464 0.1819504 -0.0045998823
-0.12941211 0.16508812 0.08572705 0.05403323 -0.13745509 -0.029960519 -0.09182517 0.049244206
0.15334053 0.0024472196 0.1945902 -0.020175071 -0.029850118 -0.06312471 0.051346496 0.097462
-0.08541052 0.14858271 0.12684652 -0.15764007 0.15963547 -0.16521543 -0.11453097 -0.05420595
0.0795279 -0.15929349 -0.13208146 0.106741965 -0.11983064 0.08373141 0.099764 -0.1292907

lstm.bias_ih f4 [96]
00000000: 19f5 d4bd 5970 bf3d 072f 013e fa7a 303d
00000010: e58e cb3d 5de6 8a3d 6f99 aabd d294 883d
00000020: 5c46 e9bc fda9 f0bd 377d 2c3e 7ced 1c3e
00000030: 50b2 973d cf5e 27be 5a23 34be d282 763c
00000040: 8f16 06be fe50 2dbe df06 4dbe dbe2 03be
00000050: e30d f43d 7e0c 283d ec9a 503e 1d70 f73c
00000060: 8382 ffbc 1dfe 473e 374c 173e c7f7 33be
00000070: c5d8 233e 0b1a 453e 3ea0 8c3d 4813 c23d
00000080: 3ddc 9f3d cbf6 4d3e c732 9b3c 178a 4dbe
00000090: 3d63 24be e008 333e 6f8b 013e 32bf fdbc
000000a0: 9e2b dbbd f8d6 2d3d ce06 c23d 5835 903d
000000b0: 4d8d 21be 58d6 92bd 7064 08be 1f6a f6bc
000000c0: 9cf7 10bd 0bf4 973c 8e12 473c c6cb 22be
000000d0: 210a 3bbe 1cb5 2b3e 39dc eebd 974c 03bd
000000e0: a2c1 aabd 74fd c23d e5c5 4c3e c853 1fbc
000000f0: e817 1cbe 0867 f7bb fb12 33be acb7 493e
00000100: 6e4a 2d3d c421 a63d fa46 953d fa62 01be
00000110: d8e6 f5bd 7a3b 173e 191f cbbc d5e8 e8bd
00000120: dc4d 473e 06f1 51bd 71c9 c13d 49e3 f9bc
00000130: c5b3 2fbe ba25 b1bd 8469 4c3e 7406 3a3e
00000140: 2905 36be 8312 97bd 2055 b4bd cc72 3ebe
00000150: dbcd b83d 7aa5 1dbe 270d 403e b34d 1abe
00000160: 1262 4dbe 00bf febd e3fd b83d 7488 03be
00000170: 18a8 97bd 51e6 1f3e ce00 d2bd 5342 063d
-0.10398311 0.093476005 0.12615596 0.04308603 0.09939364 0.067822196 -0.083300464 0.0666901
-0.028475933 -0.11751173 0.1684464 0.15324968 0.07407057 -0.1634476 -0.1759161 0.015045838
-0.13094543 -0.16925427 -0.20022152 -0.12879507 0.11916711 0.04102754 0.20371598 0.030204827
-0.031190163 0.1953053 0.14775167 -0.17574988 0.1600066 0.19248216 0.06866501 0.09476334
0.07805679 0.20113675 0.018945111 -0.20072208 -0.16053481 0.17483854 0.12650846 -0.030974958
-0.10701679 0.04244134 0.09473954 0.070414245 -0.15776558 -0.07169789 -0.13319564 -0.0300799
-0.03539239 0.018548986 0.01215042 -0.15898046 -0.18265583 0.16768306 -0.11663098 -0.032055464
-0.08337714 0.095209986 0.19997366 -0.009724565 -0.15243495 -0.007550124 -0.17487709 0.19698972
0.04230731 0.08111909 0.07288928 -0.12635413 -0.120069206 0.14768782 -0.024795102 -0.11372534
0.19463295 -0.05125525 0.0946225 -0.030503886 -0.1715842 -0.08649774 0.19962126 0.18166524
-0.17775406 -0.07376578 -0.08805299 -0.18598479 0.09023639 -0.15395156 0.18755017 -0.15068702
-0.20056942 -0.12438774 0.090328 -0.12845021 -0.07405108 0.15615202 -0.1025406 0.032778095

lstm.bias_hh f4 [96]
00000000: 4c10 a23d 080f fa3d dd97 1a3e 710a 503d
00000010: 7868 0dbe d289 45bd c667 0dbe bcfc 413e
00000020: fcfa dabd 893d 303e 98ad b7bd 0943 1bbe
00000030: 012a 3b3e 6d97 703d a485 ec3d a129 c4bd
00000040: 7f0d 37be ab58 2d3e eb15 39be c42d 2abe
00000050: 49fe a9bd c9c6 473e 3b59 3fbe 4408 50be
00000060: d7f0 c93c 60ac 323e eb9f 3bbe d1bb 47be
00000070: fa6c 24be d8aa 173e 1d1e ec3c ec91 93bc
00000080: fe39 3c3e f837 14be 23cd 433e a14e 95bd
00000090: ea44 01bc 16b4 413e 27d5 653b bd33 a7bd
000000a0: b251 eb3d dcdc 783d be41 333e 7531 3dbc
000000b0: bd95 e8bc feaa fb3d de07 34be fcb2 6f3a
000000c0: 5db5 9bb9 5613 bdbd 1b5a 0f3d d45b a1bd
000000d0: 6269 48ba 075d 4cbe 2224 753c b869 01be
000000e0: 37d0 f3bc 0998 283d 281e 403e 076d 143e
000000f0: cce5 febb ab36 e4bd a3c7 913d e8bd 2f3d
00000100: fbce 033e 3751 e93d 6f37 ff3d af5c 8abd
00000110: 0b69 a13d 01bf af3b c49d d5bd 5cea 493c
00000120: 1412 60bd f9db 353e 89a1 0abc ffee 323e
00000130: 7492 383c 57a5 9c3d a890 cabd 56d5 c43d
00000140: 7501 4c3e fabf a9bd c6c6 d33d d584 053e
00000150: db3b efbd b5a6 df3d 24a8 16be 5c6a 853d
00000160: fd7e f7bd a7c8 f73d 5a09 c43b 6445 a8bc
00000170: 9b19 9bbd 5999 463e 8746 14be 3d5b 42be
0.07913265 0.12209898 0.15096994 0.050791208 -0.13809383 -0.04822714 -0.13809118 0.18944067
-0.10692403 0.17210974 -0.08968657 -0.1516229 0.18277742 0.05873816 0.115489274 -0.095782526
-0.17876242 0.16928355 -0.18074767 -0.1661902 -0.08300454 0.19509424 -0.18686382 -0.20315653
0.024650974 0.17448568 -0.18322723 -0.1950524 -0.16057196 0.14811265 0.028822953 -0.018013917
0.18381497 -0.14474475 0.19121222 -0.07290388 -0.007889966 0.18916354 0.0035069676 -0.08164165
0.114901915 0.060757503 0.17505547 -0.011547436 -0.028391713 0.122884735 -0.17581126 0.0009143797
-0.0002969903 -0.09232204 0.03499804 -0.07878843 -0.0007645098 -0.19957362 0.014962228 -0.12637985
-0.02976237 0.041160617 0.18761504 0.14494716 -0.0077788588 -0.111432396 0.07118156 0.042905718
0.12871926 0.113924436 0.12461745 -0.06755959 0.078813635 0.0053633456 -0.10430482 0.012323942
-0.05470474 0.17759694 -0.008461365 0.17473982 0.011265386 0.076487236 -0.09890872 0.09611003
0.19922431 -0.0828857 0.103406474 0.13038953 -0.116813384 0.10920469 -0.14712578 0.06514427
-0.12084768 0.12098818 0.00598256 -0.0205409 -0.07573243 0.19394435 -0.14480029 -0.18980117

linear.weight f4 [11, 24]
00000000: c21e e9bb 44f5 89bd a04d 59bd 3bb6 dc3d
00000010: 1ded 173e 4866 843d a659 023e 08fd efbc
00000020: 6b37 a03d 10e8 22be 743e 13be 75c0 f9bd
00000030: 184b c4bd 8ba6 63bd 29f5 3dbd 0c30 e43d
00000040: 43ea 07bd 96a9 213e a838 85bd 628c 263d
00000050: a8ce a23d 85b4 773d a4c0 3cbe aa60 303e
00000060: d2c7 4cbe c145 2fba 008c f83c fe35 fb3d
00000070: f0af 7dbd 15b8 df3d f40b cdbc 4d7f 013e
00000080: 7f51 2e3d 6cbd 013e b183 f4bb c1e3 46be
00000090: c40a 02be 57d5 103d a35b f23c 4751 c9bd
000000a0: b752 ebbd fdf0 493e 6807 443e 0dd1 ffbd
000000b0: 8ceb d13d 0017 35be 5486 1dbe 3aa9 26be
000000c0: 83eb 63bd 3450 06bc 6e46 183e 65cd 46be
000000d0: 8a51 003e bd94 d33d 6510 f6bd 0c2c 3d39
000000e0: 216e f1bd 068a 05bd 681d 24be f6ba 2abd
000000f0: 9aa0 46be 7e61 253d 2985 16be bdc0 303d
00000100: 008f 69bd 5229 b73d 094e 86bd a4e4 783d
00000110: f803 ffbd 3fee 6bbd 4880 44bd a3f8 cdbd
00000120: e7fa 063d 6c32 2c3e 7568 b3bd 79f3 05be
00000130: cd4a 563d 9809 26be 052a c1bd f0d6 12be
00000140: 78d3 a6bb b5c1 99bd d31d 25be 3b68 7f3c
00000150: a5bc bd3d 9270 fd3d b61c b53d ef18 de3d
00000160: 1dcc 1f3a c142 ab3d 85fe febd b042 d1bd
00000170: 8b48 083d c485 3b3d 158d 093e de33 423e
00000180: ecce a83d 93a4 093d 059e 06be 6ac1 503e
00000190: cec4 503c 9da1 4a3d 30ee 24bd 3d87 02be
000001a0: 96ef 38bd 1d43 1dbe 004e 373e 9bba 97bd
000001b0: 6d85 823d ff41 343e 3f83 26bb 7f3b 09be
000001c0: 2f38 3ebe 7a80 a63d 88ee e03d e563 e43c
000001d0: a40b bdbc fd67 cebd 7c9a 7b3d 2c3c 0dbe
000001e0: 08da e33d 0228 00be 975f 18bd 622d 41be
000001f0: f8ca 823d 62a2 233d 406d ac3d cf5d 7a3d
00000200: 2759 da3b 5e14 3ebe a0f9 4fbe aab6 33be
00000210: 109c d7bd a6a3 a23d 815c c9bd bee3 05be
00000220: 9efb 81bd 4d3d 24be 5214 e0bd aa00 20be
00000230: e685 34be 7067 5c3d f779 513c b952 043e
00000240: bded 433e 671a 123e acd1 3bbd 4444 cd3d
00000250: f0d9 2a3d 33cf 46be 6160 61bd 5164 713d
00000260: 950b 0abd 7b29 b9bd 2d41 dc3d a2a6 503e
00000270: 642e 07b9 6d16 c13d a8b8 00be f0d8 07bd
00000280: fa92 4bbe 3161 e3bd 7f59 bfbd 1dfd 2d3c
00000290: 6b85 b7bc aa47 f13c c719 1b3e 22d3 303d
000002a0: b046 863d 5bea 8fbd ab67 aebd 173b 33be
000002b0: e468 3d3e 61f1 233d 2cc2 033e 7e79 8dbc
000002c0: 3e9e 12be daf2 013d 4187 23be 2d05 c53d
000002d0: 1fe7 5abc 2383 f63d 1fc2 853d 9840 2a3e
000002e0: b937 aebd cf1d 743d 1ec2 c1bc db1b be3d
000002f0: 84ad 173c f33e 763c d39b 10be ba27 c93d
00000300: d697 b0bc 7a9e c9bc c49c 49bd 5de7 a83c
00000310: 6e50 e73d b619 debc 1f1b 00bd 2d43 a73c
00000320: c22a 3bbe 6d72 443d 3072 74bd 5f0b 153d
00000330: a347 44be 7fbe 53bd 8953 f7bc 9a89 4abd
00000340: bc5a 183e 4027 c2bd 11f4 45be b756 12be
00000350: e998 8fbd 7fbb 3fbe 89cf 35be 25c2 3fbe
00000360: 9334 393e 1f38 3e3e b388 44bd 4f24 76bb
00000370: c4a0 0cbd cdf6 c43d 8ab6 393e 9486 3c3e
00000380: 0567 c03d ce27 9f3d 88a2 c1bc 85b3 17be
00000390: b340 4cbe 9a2c 52bd b0ba d13d 82f6 1abd
000003a0: 0d01 d03d 4d6f 4c3e b989 a83d fa2b 31bc
000003b0: 90b6 f7bd 7856 2e3e a276 35be dbd7 823d
000003c0: e6eb 41be ed14 5abd 49e0 35be f805 803b
000003d0: f302 233e d705 41be 6190 2b3e b26e c53d
000003e0: 92aa 0cbe fe26 ecbc 38da 2ebe 3b86 37be
000003f0: f590 3f3d 7612 293d a94d 1fbd cf85 a2bb
-0.0071142623 -0.06736234 -0.053052545 0.10776945 0.14836545 0.06464821 0.1272951 -0.02929546
0.0782307 -0.15908837 -0.14379293 -0.121949114 -0.095846355 -0.05557875 -0.04637638 0.11141977
-0.033182394 0.15787348 -0.06504947 0.040661223 0.07949573 0.06047489 -0.18432862 0.17224374
-0.199981 -0.00066861144 0.030340195 0.122661576 -0.061935365 0.10923783 -0.025030114 0.12646218
0.04255819 0.12669915 -0.007461988 -0.19422819 -0.1269942 0.035359707 0.029584711 -0.098299555
-0.11490386 0.19720836 0.1914345 -0.12491045 0.10250005 -0.17684555 -0.15383273 -0.16275492
-0.055644523 -0.008197833 0.14870617 -0.1941429 0.12531105 0.10331104 -0.12014846 0.00018040853
-0.117885835 -0.032602333 -0.16026843 -0.041682206 -0.19397202 0.04037618 -0.14699234 0.04315256
-0.05702114 0.08943428 -0.06557853 0.060764924 -0.12451929 -0.057600256 -0.0479739 -0.10057189
0.032954123 0.1681611 -0.08760158 -0.13081159 0.05231743 -0.16214597 -0.09431843 -0.14339805
-0.005091127 -0.0750765 -0.16124658 0.015588815 0.09264497 0.12374987 0.08843367 0.108445995
0.0006095784 0.08362342 -0.124508895 -0.10217798 0.033272307 0.045781866 0.13432725 0.18965098
0.08242592 0.033604216 -0.13146217 0.20386282 0.012742234 0.049470533 -0.040266216 -0.12746902
-0.045150362 -0.15357633 0.17900848 -0.07408639 0.06373105 0.176033 -0.0025407819 -0.13401602
-0.1857612 0.08129974 0.10982996 0.027879665 -0.02307684 -0.10078428 0.061426625 -0.13792485
0.111255705 -0.12515262 -0.037200537 -0.18864968 0.063863695 0.039949782 0.08419275 0.06112462
0.00666346 -0.18562457 -0.20310068 -0.1755015 -0.105278134 0.0794137 -0.09832097 -0.13075158
-0.0634682 -0.1603901 -0.10941376 -0.15625253 -0.17629203 0.053809583 0.012785426 0.12922181
0.19133659 0.14267884 -0.045854256 0.10022786 0.041711748 -0.19414978 -0.055023555 0.05893356
-0.03370245 -0.09041115 0.10754619 0.20376065 -0.00012891885 0.094281055 -0.12570441 -0.033165872
-0.19880286 -0.11102522 -0.09343242 0.010619429 -0.022402486 0.029453117 0.15146552 0.043170102
0.06556451 -0.07027122 -0.08515867 -0.1750301 0.18497044 0.04002512 0.1286704 -0.017269846
-0.14318177 0.031725742 -0.15969564 0.09620128 -0.013360768 0.12036731 0.06531166 0.16626203
-0.08506722 0.05959874 -0.023652133 0.09282657 0.009257678 0.015029657 -0.14121942 0.0982203
-0.021556776 -0.0246117 -0.04922177 0.020618135 0.112946376 -0.02711187 -0.031275865 0.020417774
-0.1827803 0.047960687 -0.05967921 0.036387797 -0.19167952 -0.051695343 -0.0301912 -0.049447633
0.14878362 -0.094801426 -0.19331385 -0.14290892 -0.07011587 -0.18723868 -0.1775495 -0.18726404
0.18086462 0.18576096 -0.04798193 -0.0037558263 -0.034333006 0.09617386 0.1813604 0.18410712
0.093946494 0.07771264 -0.023637071 -0.14814575 -0.19946556 -0.051312067 0.10240686 -0.037832744
0.101564504 0.19964333 0.082293935 -0.0108137075 -0.12095368 0.17025173 -0.17721036 0.063888274
-0.18937644 -0.053242613 -0.17761339 0.0039069615 0.15919094 -0.18849884 0.16754295 0.09640254
-0.13736942 -0.028827187 -0.17075431 -0.17922299 0.0467691 0.04127737 -0.038892422 -0.004959799

linear.bias f4 [11]
00000000: f028 aa3d 93cb 1b3e 54a3 c33d f8e4 79bd
00000010: c2eb d4bd 842c c8bd 446e 9fbc 0d6a dc3d
00000020: fb26 cbbd ba6c 34be f43a 563c
0.083085895 0.15214376 0.09552637 -0.061009377 -0.1039653 -0.09774116 -0.019461758 0.10762415
-0.09919544 -0.17619601 0.013075579
